models/mnist/mnist_lenet.pth (torch_old, 88667 bytes, 8 tensors)

conv1.weight f4 [10, 1, 5, 5]
00000000: c7c0 13be 7041 c63f f8dc 373f a761 193f
00000010: fc5b a53f b600 8bbf 8947 cb3d fd4e 0e3f
00000020: 71be c03f f7aa 72be 397a 45bf f293 8fbf
00000030: 5bed 5cbf 223e 3ebf 4dbb 7dbf c163 813e
00000040: a1a4 58bf 9e74 00bf 3396 fabe 8b02 b83d
00000050: c0f8 243c 1f82 013f df11 99bd 0d81 bb3c
00000060: b4bb 203f db70 a03d aa8d 083d c72d eebd
00000070: 0437 b83d 4456 673a 4da9 60bd 85f4 163d
00000080: c6e4 be3d 0bb3 0c3d c0c6 1f3c a4e3 9e3d
00000090: 1939 eb39 540a 013d 3e55 013e 6ed8 6a3d
000000a0: 06cf f5bb b9c9 babc 90a9 82bd ee9b 35bd
000000b0: 92ed 29bc a19e 223e 9fe3 dfbc e74d 43bd
000000c0: 8a8d a13a ec13 ac3b 97ce 1a3f 5188 57bf
000000d0: 2d60 fbbf 3dd4 87bf c8dc 1c3f 9f09 5d3f
000000e0: db55 ca3f e0a3 e23f 41e7 9c3f d4ac fa3d
000000f0: c135 a83e f3c2 21bd 2ac6 25be e805 793e
00000100: 62d3 09bf a0d2 45bf 3a8d 4cbf dd12 a4bd
00000110: 8b69 d6be 962e 55bd b674 3ebd 6de5 523d
00000120: fc12 f83e fc14 963d c83b 47be 4734 e8be
00000130: 57e7 c93e db82 553f f282 923e a06b 663e
00000140: 9a79 af3e 183f 553f d914 cdbe 3e06 bcbf
00000150: 8973 09bf c357 9d3e 7556 39bc 6d27 27bf
00000160: ecf0 a73d a98b 4a3f 90ef 453e 2e17 6a3f
00000170: cde3 ae3e e3b4 d63e 3798 913f 3e69 15bf
00000180: e7e9 dc3e 3140 1d3b 4a5b e63d 9c72 60bd
00000190: b6d3 f7bd 6d2a 0a3e 383a 82be fc10 803f
000001a0: 8d42 9c3f 496f 603f 8daf 6b3e f54e 33bf
000001b0: 0d8f 053f 056c 2e3f c27e 17bf 1e54 34bf
000001c0: ceff 0ebf c437 aebe f578 4e3f 6625 adbe
000001d0: 8c09 21bf f4c7 80bf 9840 a1bd 2612 943f
000001e0: c8e2 e43e 96a7 c93e a82c 1f3f 9cf5 b4bd
000001f0: c939 803f abdd d2bd 1ca0 debe 009e 4ebd
00000200: ceaa 853d 5789 213f e932 cdbe f804 58be
00000210: e10e 64bf 9651 d9bf 2a65 95bf 0e30 03bf
00000220: 8354 67be 7670 e0be eb81 303f d53d 37be
00000230: 0c81 78bf f653 4e3e a6ba 593e 3db3 333f
00000240: 3a9b 51be 9c3a 873e 2130 3f3f 482d 463f
00000250: 3560 d3bd a67f 133f c3b2 183e eea6 0dbf
00000260: d755 88be 68e8 bf3e 0a20 1b40 a69d 9d3e
00000270: bacd 743e 384a 0b3f eb33 87bc 0bdc 1d3e
00000280: f055 1c3e e5c1 ab3e a667 3ebc 00ec 1abe
00000290: 7752 d8bd 2b15 8f3f ad9b 403f dfc6 0bbf
000002a0: 4ee0 29be c475 56bf fcc9 413f 7d83 97bd
000002b0: 8461 16bf 02e4 7f3e b874 0a3e e6c0 643e
000002c0: b39e 7c3f 0901 86bf 3716 b0be 841c 26be
000002d0: 4f9f 89be 6a54 bbbf f3f1 9bbf 3662 2e3f
000002e0: c02d 483f c9a8 07be 8407 5fbf f180 db3e
000002f0: bbf1 0f40 66d9 acbe 96d4 483e 83a8 4ebc
00000300: 54eb 233f 0be8 1fbf b8f2 55bf 9e7f 30bf
00000310: 2bbf 95be e86c 1b3f 0850 8bbd d50d 1f3d
00000320: 890e a3be 3025 ef3f 2677 f9be d76a d1bf
00000330: 8bc8 9e3e 0ced 4bbf f06f a23f 3dc7 d03e
00000340: c839 a4bf 50c3 0d3f 560b 02bf 1b0c 123f
00000350: d6fe bdbe 9426 48bf 14ef 563f cbbc 17be
00000360: e51a a63e 5ad2 043f 5d61 6f3f 5a29 683d
00000370: 088b b93e 1d84 223f 9a4b 57bf 6e05 0bbf
00000380: e619 fbbe 5da0 1ebd ea61 013e 5527 bd3e
00000390: a632 7dbf 68c3 3a3e c4ce d13e 2982 ca3e
000003a0: 9e7d 493f a28f 5ebe c85a 11c0 f903 cd3e
000003b0: 913f 84be b4b4 6d3f c0f8 db3f 7a3c 99be
000003c0: d8e1 13bf 9feb 34bf 5a1d 0fbf 80ed 053f
000003d0: fb7d 293e 133a 8f3e 9357 c93d 1bed d5be
000003e0: 8a9d 8e3e 1153 1e3f
-0.14429007 1.548872 0.71821547 0.5991463 1.2918696 -1.0859592 0.099257536 0.55589277
1.5058118 -0.2369803 -0.7713962 -1.1217024 -0.86299676 -0.7431356 -0.99113923 0.2527142
-0.84626204 -0.50177944 -0.48942718 0.0898486 0.010069072 0.50589174 -0.07474112 0.022888685
0.6278641 0.078340255 0.033338226 -0.11629825 0.089948684 0.0008824805 -0.054848958 0.036854286
0.09320979 0.034350436 0.009751976 0.07758263 0.00044865234 0.03150399 0.12630174 0.05733531
-0.0075014858 -0.022801267 -0.06379998 -0.04433816 -0.010371583 0.15880825 -0.027330218 -0.047681715
0.0012325507 0.0052513983 0.6047148 -0.8419238 -1.9638726 -1.0611645 0.61274385 0.86342806
1.5807451 1.7706261 1.2258073 0.122399956 0.3285351 -0.03949256 -0.16188875 0.2431866
-0.5383817 -0.77274513 -0.79902995 -0.080114104 -0.41877398 -0.05204638 -0.046498023 0.05148833
0.48451984 0.07328221 -0.19456398 -0.45352384 0.3943431 0.83402795 0.28615528 0.22501993
0.34272462 0.832994 -0.40054968 -1.4689405 -0.5369192 0.3073102 -0.011312117 -0.65294534
0.08200249 0.79119354 0.19329667 0.9144162 0.34158173 0.4193488 1.1374577 -0.5836371
0.43147203 0.002399456 0.11247881 -0.0547968 -0.121009275 0.13492747 -0.25435042 1.0005183
1.220781 0.8766981 0.23016186 -0.70042354 0.52171403 0.68133575 -0.5917779 -0.7044085
-0.55859077 -0.3402692 0.80653316 -0.33817595 -0.6290519 -1.0061021 -0.078736484 1.1568038
0.4470427 0.3938567 0.62177515 -0.08835909 1.0017635 -0.10296186 -0.4348153 -0.05044365
0.06526719 0.6310019 -0.40077904 -0.21095645 -0.89085203 -1.6978023 -1.1671498 -0.512452
-0.22590832 -0.438358 0.6894824 -0.17894681 -0.9707191 0.20149216 0.21262607 0.7019537
-0.2046937 0.26411903 0.74682814 0.77412844 -0.103210844 0.5761665 0.14911942 -0.5533284
-0.2662799 0.37482 2.4238305 0.3078434 0.23906603 0.54410124 -0.016504249 0.15415971
0.15267158 0.33546367 -0.011621391 -0.1512909 -0.10562604 1.1178335 0.7523754 -0.5460033
-0.16589472 -0.83773446 0.7569883 -0.07398126 -0.5874255 0.24989322 0.13521087 0.2233921
0.98679656 -1.0469066 -0.3439195 -0.16221815 -0.26879355 -1.4635136 -1.2183212 0.6811861
0.7819481 -0.1324798 -0.8712084 0.42871812 2.249129 -0.33759612 0.19612345 -0.0126134185
0.6403096 -0.62463444 -0.83573484 -0.6894473 -0.29247412 0.6071305 -0.06802374 0.03883155
-0.31847027 1.8683224 -0.48723716 -1.636073 0.31012377 -0.7965858 1.2690411 0.40777007
-1.2830133 0.5537615 -0.5079855 0.5704972 -0.37108487 -0.78183866 0.83958554 -0.14818113
0.32442394 0.5188347 0.9350794 0.05668006 0.36238885 0.6348284 -0.84099734 -0.5430516
-0.49043196 -0.038727153 0.12635008 0.3694407 -0.9890541 0.18238604 0.40978062 0.3955243
0.787073 -0.21734479 -2.2711658 0.40042093 -0.25829747 0.92853856 1.7185287 -0.29928952
-0.57766485 -0.7067203 -0.5590416 0.5231552 0.16551964 0.27973995 0.098311566 -0.4178246
0.27854568 0.618455

conv1.bias f4 [10]
00000000: da5a 9dc0 89c5 66bf 87ef 47c0 ec23 32c0
00000010: e1c5 7ac0 1c4a 83c0 d09a 23c0 22f7 4ac0
00000020: 2f55 60c0 1a5b 53c0
-4.9173403 -0.90145165 -3.1239946 -2.7834425 -3.9183276 -4.1027966 -2.556324 -3.1713338
-3.5051992 -3.3024354

conv2.weight f4 [20, 10, 5, 5]
00000000: 6635 5bbf ef7b 4c3e e646 babe 9bee f7be
00000010: cfea a1be 6f76 7dbf f14e e7be d70f 09be
00000020: ba2e 08be 5725 3abd dc34 fabd 4940 4ebe
00000030: f86f b6bd 7832 b3bd c46b a5be 6ece a93e
00000040: 2517 1b3f 732b abbd 7869 283d 81da 15be
00000050: 0545 b1be e1d2 3a3f f4eb 533f 552c 2abe
00000060: a4f5 24bf dc7d a9bd 38ab a9bc c14b c5bc
00000070: f8e8 9eba a9b1 643c a0f0 36be efd7 04be
00000080: 770d 12be f921 e3bd 3091 1abd 260b 0abe
00000090: 87da 04be 8852 32be cba5 5dbe 25e1 47be
000000a0: 46c2 a3bd 2825 d6bd a498 a8bd b9fd c3bc
000000b0: e54d 80bd d325 083d face 893c ff07 d63d
000000c0: 49c5 853d b1b5 b23d 0779 f0bc 6bb1 02be
000000d0: d76f 8d3d 02fd 13bd 8f38 053f 4233 9f3c
000000e0: b947 9f3e 2029 28bf ec92 023f a3e2 173f
000000f0: 5f35 f23e 25a5 073e 52ba 68bd 1f6a ff3e
00000100: 5f02 a73e fd13 6bbc fd0d 573e e299 353d
00000110: 58e7 ab3e 5383 653b 4c18 c2be 3d65 953e
00000120: ce7e c83e 5563 a1be 267d 733d aecb 8d3d
00000130: d877 20be cb98 71bf 55e0 d6be 6c56 e53d
00000140: acb3 5f3d c300 c13e 76af 623e 16fa 41bd
00000150: ef1b 883e 1f22 b83e f886 7f3d daf3 5f3e
00000160: 1556 103f 8999 84be 9894 84be 72cf aabe
00000170: b33e 65be 58d4 463e 1501 5abc 6d0d 123f
00000180: 56b5 2d3d 898e a0be 3389 13bd 4742 6e3e
00000190: 4be5 92be ed20 1ebe f33a e1be 0d93 5bbf
000001a0: c1f5 223e 06d4 fabe cd1a b9be 379e 10bf
000001b0: 3361 f1be 0a48 a7be da21 23bd fbd4 18bf
000001c0: 1dae 2abf 9041 25bf 5a02 9cbf 2c84 9fbe
000001d0: a1d4 cdbe 2a6d 80bf cc56 92be e85e f1be
000001e0: 0204 3bbf 87d7 8abf 852c 7cbe 92c9 d1bd
000001f0: 0a1c 06bf 6dde 92be e2b7 96be 07ea d93b
00000200: 9949 173e 2c03 4d3c 7771 e23d 289f cc3e
00000210: 8e36 e23e 6a93 833e a678 6fbc 2c5b e1be
00000220: 565d 193f 203e bfbb 68d4 85be db20 003f
00000230: 5216 dbbe dbd5 55be 35bb cbbe 3841 1cbf
00000240: 2911 06bf ac00 82be e17d 0cbf 5360 f1be
00000250: b304 00bf ba5e b6bd 43f5 003f 08dd 02bf
00000260: e396 9e3e 9c2e 693e ddc9 88be 3b3d bbbd
00000270: 6a8a 093e 1aa0 9abe 601e 8e3d b493 433e
00000280: 98f4 8c3e 71e8 943e d447 803e 4bf7 8fbe
00000290: 5cec 873e 7a5e 243c 5666 cb3e 1d20 c7be
000002a0: 645f 8d3c 82f9 413c 0b18 98be b775 13be
000002b0: 1a79 0b3e 99ae 66bd 5064 1c3e b17b 25bd
000002c0: 5782 1c3e f476 953d 6488 abbe fddd ecbd
000002d0: abe6 f93c bbfb ee3e 2d8f 10bd af57 1dbd
000002e0: 6850 11bf 5401 eabd 7330 be3d 6133 903e
000002f0: 3c76 71be 17ae cc3d 30be 0fbf 469b 0ebf
00000300: ea98 8ebf 72e2 51bf ce41 19bf 521f 41bf
00000310: 201d 62bf 5e1a 32bf 7469 1ebd 0192 febe
00000320: 9b8b 36bd a28d 5e3e ec8a a1bd 84e7 35be
00000330: 92b6 ecbd 7672 83be 95c2 53be e427 c1bd
00000340: 79b2 ffbd d1d2 e5be e622 733e edfd 03bf
00000350: 89e3 f73e d003 b2be 213d a1be 4fe1 5f3d
00000360: f68e ff3c 2821 7abe d3d3 2abf 2771 e3be
00000370: bc14 f6be e8fd c2be c094 4fbf 3779 19bf
00000380: d863 04bf b0d5 a43e 37a1 cf3d 389f d1be
00000390: 5aa9 bfbe 91df 3abf 1e90 d9bd 4b2f 84bc
000003a0: 23ec 91be e098 34be 0409 89be b622 3ebe
000003b0: 19c0 f53e 8ab2 a13e 80da 9c3e 3537 3e3e
000003c0: ec90 df3e 7f78 883d 82da 18be 1540 663e
000003d0: 9757 1fbd 2fce 733e 2686 eebd c567 1bbf
000003e0: 86b0 0cbf 583f 7dbe 7f18 61be 6b2b fabd
000003f0: e834 d03d 36b1 51bc ffd3 15be 08bc 90be
-0.85628355 0.19969152 -0.36382216 -0.4842423 -0.31624457 -0.9900884 -0.45177415 -0.13384949
-0.13299075 -0.045445766 -0.122171134 -0.2014171 -0.08908075 -0.087498605 -0.3230878 0.33165306
0.6058219 -0.08357897 0.041116208 -0.14634134 -0.3462297 0.72978026 0.8278191 -0.16618474
-0.6443732 -0.08275959 -0.020711526 -0.024083974 -0.0012123873 0.013958373 -0.17865229 -0.12972997
-0.14262949 -0.11090464 -0.037736118 -0.13480815 -0.12973987 -0.17414296 -0.21645276 -0.1951948
-0.07996039 -0.10456306 -0.08232239 -0.023924695 -0.06264857 0.033239197 0.016822327 0.10450744
0.0653177 0.08726061 -0.029354585 -0.12762992 0.069060974 -0.03612996 0.52039427 0.019433621
0.31109408 -0.6568775 0.51005435 0.59330195 0.47306344 0.13246591 -0.056818314 0.4988565
0.32618997 -0.014348027 0.2100143 0.044336207 0.3357494 0.0035020902 -0.37909162 0.291788
0.39159244 -0.31521097 0.059445523 0.069236144 -0.15670717 -0.9437377 -0.41968027 0.11198124
0.054614708 0.37695894 0.22137246 -0.04735764 0.26583812 0.35963532 0.062384576 0.21870366
0.5638135 -0.25898388 -0.25894618 -0.33361393 -0.22387199 0.1941694 -0.013305922 0.57051736
0.042409264 -0.31358746 -0.036019515 0.2326747 -0.28690562 -0.15442248 -0.43990287 -0.85771257
0.1591406 -0.48989886 -0.3615326 -0.56491417 -0.4714447 -0.3267215 -0.039827205 -0.5969998
-0.66671926 -0.64553165 -1.2188218 -0.31155527 -0.40201285 -1.0033314 -0.28581846 -0.4714272
-0.7305299 -1.0847024 -0.24626358 -0.102435246 -0.52386534 -0.28685322 -0.29437166 0.0066502127
0.14774169 0.012512963 0.11056798 0.39965177 0.44182247 0.25698406 -0.014616167 -0.4401487
0.59908044 -0.0058362633 -0.26138616 0.50050133 -0.42790467 -0.2088236 -0.39791265 -0.61037016
-0.52369934 -0.25391138 -0.54879576 -0.47143802 -0.5000717 -0.089047864 0.5037424 -0.51118517
0.30974492 0.22771686 -0.2671651 -0.09142538 0.13431707 -0.30200273 0.06939387 0.19099313
0.2753036 0.2908359 0.250548 -0.28118357 0.26547515 0.010032291 0.39726514 -0.38891688
0.0172574 0.011839272 -0.29705843 -0.14400373 0.13620415 -0.056318853 0.15272641 -0.040401164
0.15284096 0.07298079 -0.33502495 -0.115657784 0.030505499 0.4667643 -0.035292793 -0.0384137
-0.56763315 -0.114260346 0.09286585 0.281642 -0.23580259 0.099941425 -0.5614958 -0.5570568
-1.1140416 -0.81986153 -0.59866035 -0.75438416 -0.8832569 -0.69571483 -0.038674787 -0.49720767
-0.044566732 0.21733716 -0.07887825 -0.17764097 -0.1155826 -0.25673264 -0.20679696 -0.09431437
-0.12485213 -0.44887403 0.23743781 -0.51559335 0.48415783 -0.34768534 -0.3149195 0.05465823
0.031196099 -0.2442671 -0.6672947 -0.44422266 -0.48062694 -0.3808434 -0.8108635 -0.59950584
-0.5171485 0.3219428 0.10138171 -0.40941787 -0.37433892 -0.72997385 -0.10623191 -0.016135832
-0.2850047 -0.17636442 -0.2676469 -0.18567929 0.4799812 0.31581527 0.30635452 0.18575747
0.43665254 0.06663608 -0.14927104 0.22485383 -0.03890189 0.23809122 -0.116466805 -0.60705215
-0.54956853 -0.24731195 -0.21982001 -0.122153126 0.10166341 -0.012798598 -0.14631651 -0.28268456

conv2.bias f4 [20]
00000000: 92ef 59bf e78a 1cbd 7e67 03be 8e5c 97bf
00000010: 261d efbd a2b1 19c0 b690 34bd 1d11 87bf
00000020: 1b10 bdbf 1356 573c a564 90bd 25d9 b13e
00000030: de75 53bf 18ab 3dbe 4a4b d13f 9272 40bd
00000040: 0836 d73c cfe8 cdbe 37a6 8bbd 1bb3 4e3f
-0.8513118 -0.038218405 -0.12832448 -1.182512 -0.116754815 -2.4014668 -0.04408332 -1.0552098
-1.477054 0.01314308 -0.070504464 0.3473598 -0.82601726 -0.18522298 1.6351101 -0.046984263
0.026270881 -0.4021668 -0.06818812 0.80742043

fc1.weight f4 [50, 320]
00000000: 8ed1 623e da42 e03d cbc7 fcbd 4473 e0be
00000010: 5dc0 0a3e 6c37 c4be 28bd d2be a2d0 3f3e
00000020: 3898 c9be f73e c0be ad95 1bbe d3e5 083e
00000030: fb1a e8bd ffc3 e1bd 166a 2bbe ed00 bb3e
00000040: dfda febd f9e9 16be e7a1 993b cfc1 d2bc
00000050: ec05 aabe b016 62bd 5791 8d3e c28e 0abe
00000060: 5023 67bb 8178 76bd 6277 003d 843b 9dbc
00000070: ca1b a13d c82d d0bd 7daa a03c 60a4 8e3c
00000080: 62b1 3bbe 28f2 d0be 9eca fb3c 0665 bb3b
00000090: 4056 88be e04a e1bc 1e50 a23d 78fd 5ebe
000000a0: 0803 47bd cc54 433d 6fc0 27bd a517 85bc
000000b0: 5c99 083e a8c5 b43d 4277 0ebd 122d 313d
000000c0: 878c 4c3e a1fb a83d 2f5b 943c 855b 90be
000000d0: 6ac9 72bf 8564 98bc ac6b b93e b20d a0be
000000e0: 9796 f2be d981 c03d 2e26 40bd 2be6 acbe
000000f0: 4103 02bf d2b0 ccbd 1533 40bd 81de e53d
00000100: 3b04 0bbd dbfc b5bd 98e4 07be ff1f c4bd
00000110: 1bf3 0abd 0876 073b e759 8bbd 5967 b0bd
00000120: cc49 00be 1923 59bd 82f8 91bd a3bf dfbd
00000130: 2cd8 d0bd f992 ecbd 300f 13be ce62 1cbe
00000140: 2de6 0e3f ff60 2fbe 1a8d d5be 9077 06be
00000150: f6fe 993d 00c8 80be 81a8 6bbe 2b00 b53c
00000160: da8f 57be ea47 4dbd a670 6dbe f7ef 0a3d
00000170: 28e2 22be 7fd0 ab3e 8607 fc3e bce1 b73e
00000180: 7dae 13be 570a a7be 6e1f 10be 2e5a 6fbd
00000190: e4b3 f0bd d5da 42be 8838 ca3d e2d6 86bd
000001a0: 8d5b 0bbe 020e c43d da8c b43d 34ee 27be
000001b0: 502c 83bc 7c6c c33b 686f d8bc 0d10 8abb
000001c0: e0e8 3cbd b264 3abd 4164 ae3e 6566 cdbe
000001d0: 3380 4abe fa3a 8cbe 86c6 473d a9b6 1fbd
000001e0: a3c1 90be cf93 18be 49b6 36be c487 17be
000001f0: 03b5 e4bc 75d0 29be 4ff2 c0be cfaa e0be
00000200: d525 c8be 9993 febe 61e9 153e ba14 a4bb
00000210: 9fa7 2ebf 342c 51bf fad6 62bd 78fb 6c3e
00000220: 4d82 c4bb a92a be3d bd23 3f3d 0727 d3bd
00000230: 563b 813e ccec 123f 9719 ad3d 4c76 02bf
00000240: ef65 663e da58 02be 2e26 04bf 3589 a8be
00000250: 7bfd 533e f78b 8cbe f00f 87be d417 4e3e
00000260: 9875 0c3e 6df4 95be e2fb 23be 78e1 a93e
00000270: 95c8 08be f6df 19be 01d6 64bd 445a 44be
00000280: 2ac1 653c 72d8 123e 0641 e9bb 0464 993d
00000290: 43a8 9cbd d975 b23d 1b90 2b3e ba1e c73d
000002a0: c5c7 26bc 7565 37bd 4032 e03d ca6b 203c
000002b0: 69b4 a63c ba99 50bd 982c 933d 5b8e df3d
000002c0: d874 debc e1b6 8f3d a723 25be 7062 503e
000002d0: 1e66 54bd 9630 a5be 15d6 c83e f489 47bd
000002e0: 12a1 99be b0ee 5ebd 80b2 9b3d 28cb d63e
000002f0: 76e6 c0be bc33 ab3d 26d3 afbc c402 cebe
00000300: 9ed0 55be 7159 c4bd fd6b 363d aa58 0dbe
00000310: a4e8 24bf 2765 6cbe 0305 adbe 3f76 353e
00000320: 515c 1ebe 81c6 1b3d 8c53 b93e 6a5d cdbd
00000330: a8e5 acbd ac7f 47be ccc3 ddbd 973e 7bbe
00000340: c71e 04bd 1b85 16be 334f 413a 7d05 97bd
00000350: 4bb8 53be a11a 7cbd c61a 0dbd 3755 68bd
00000360: c631 32be 7f2e 31bd 65da dabd e9cc 00be
00000370: 800d ecbd 36cb aebd 5ac4 14be d7a7 90bd
00000380: 8172 30bf 85b8 4cbe d531 b0bd df6d 5c3e
00000390: 402f 733e c9f4 9ebe 145e 133e 5db1 5bbd
000003a0: 2e55 2abd 2759 86bb 1ea5 0f3e 30bb 73bd
000003b0: 972d 0dbe 4924 a63e 06db 8e3e af44 94be
000003c0: dc01 d1bd 6da8 56be 70e3 81be 252d 3dbe
000003d0: ff67 dbbe 71f2 fc3c 8c8e 613e e121 30bd
000003e0: 6596 ebbe 23ee e7bd 9e58 d1bd bc81 8b3c
000003f0: adf6 49be 28bd ef3e e96c 213c e7c6 07be
0.22150251 0.10950251 -0.12342795 -0.4383794 0.13549943 -0.38323534 -0.4115994 0.18731931
-0.39373946 -0.37548038 -0.15193816 0.13368921 -0.11333271 -0.110237114 -0.16739687 0.36524144
-0.1244409 -0.14737691 0.0046884897 -0.02572718 -0.33207643 -0.055197418 0.27649948 -0.1353102
-0.003526885 -0.060173515 0.031363852 -0.019193418 0.078666285 -0.10164982 0.019612545 0.017412364
-0.18329385 -0.4080975 0.030736264 0.00571883 -0.26628304 -0.027501523 0.079254374 -0.21776378
-0.048586875 0.04768829 -0.040955003 -0.016246626 0.13339752 0.088267624 -0.034781702 0.043255873
0.19975482 0.082511194 0.018109886 -0.28194824 -0.94838583 -0.018602619 0.3621496 -0.3126045
-0.47380516 0.093997665 -0.04691141 -0.33769354 -0.50786215 -0.09994663 -0.046923716 0.1122408
-0.03393958 -0.08886119 -0.13270795 -0.09576415 -0.03392325 0.0020669717 -0.06804257 -0.08613462
-0.12528151 -0.053011987 -0.07127477 -0.10925224 -0.101974815 -0.1155147 -0.14361262 -0.15272066
0.5581997 -0.17126845 -0.41709214 -0.13131547 0.07519333 -0.25152588 -0.23013498 0.022094807
-0.21050969 -0.05011741 -0.23187503 0.033920255 -0.15906584 0.33557507 0.4922449 0.3591441
-0.14422031 -0.32625076 -0.1407449 -0.05843561 -0.117530614 -0.1902879 0.09874064 -0.065839544
-0.13609143 0.09572984 0.08815928 -0.16399461 -0.01601234 0.00596386 -0.02642031 -0.004213339
-0.046120524 -0.045506187 0.34060863 -0.40117183 -0.19775467 -0.27388746 0.04877331 -0.038992558
-0.28272733 -0.14900135 -0.17842974 -0.14797884 -0.027918344 -0.16583426 -0.37684867 -0.43880317
-0.39091364 -0.49721983 0.14639808 -0.0050073536 -0.6822452 -0.81708074 -0.0553808 0.23142803
-0.0059969784 0.092854805 0.046664942 -0.10310178 0.25240582 0.57392573 0.084521465 -0.50961757
0.22499822 -0.12729207 -0.5162076 -0.3291718 0.20702164 -0.27450535 -0.26379347 0.20126277
0.13716733 -0.29288045 -0.16014054 0.33179832 -0.13357766 -0.1502684 -0.055868153 -0.19175059
0.014023105 0.1434038 -0.007118347 0.074897796 -0.07649281 0.08713884 0.1675419 0.097226575
-0.010179465 -0.04477449 0.109470844 0.009791324 0.020349698 -0.050927855 0.0718624 0.10915824
-0.027155325 0.07017303 -0.16126882 0.20350051 -0.0518552 -0.3226363 0.39225832 -0.048715547
-0.300057 -0.05442685 0.076024055 0.4195187 -0.37675828 0.08359477 -0.021462988 -0.40236485
-0.20880362 -0.09587372 0.04453658 -0.13803354 -0.6441748 -0.23085462 -0.33792886 0.17720889
-0.15464903 0.038031105 0.36196554 -0.10027583 -0.08442241 -0.19482297 -0.10828361 -0.24535595
-0.032255914 -0.14699213 0.00073741673 -0.07374094 -0.20675771 -0.061548833 -0.03444936 -0.056721892
-0.174018 -0.043257233 -0.10686187 -0.12578167 -0.115260124 -0.08534853 -0.14528027 -0.07063263
-0.6892472 -0.19992264 -0.08603255 0.21526287 0.23748493 -0.3104613 0.14391357 -0.053635944
-0.04158514 -0.0040999833 0.14027831 -0.059504688 -0.13786922 0.32449558 0.27901477 -0.2895865
-0.10205433 -0.20962687 -0.25368834 -0.18474253 -0.4285278 0.030877324 0.22027034 -0.04300106
-0.4601318 -0.11324718 -0.102219805 0.017029636 -0.19723006 0.46824002 0.009852626 -0.13259469

fc1.bias f4 [50]
00000000: 1f51 313e bd84 81be c6e8 d23d 244a 59be
00000010: 58e8 db3d 044b c7bd df59 abbd fe45 45bc
00000020: 0ab2 11bd d2b3 41be 8a57 55bd e067 e53d
00000030: 7113 a43e 5fcd 81be a7a5 d73b 8a62 3bbe
00000040: 2e2c eebb 5a9a cbbe d6cd 00bb 7a7a a3be
00000050: bc9d 703e d096 2d3d d6e4 a0bd b45d d6bd
00000060: 19b0 a03e 82a7 87be 28c6 b4bd ff57 36bd
00000070: 6d8b 903c 9a7e 3e3d 6bf8 e63d c5b1 33bd
00000080: c254 25be d7b6 f6bc 559d 84be 89dc 8dbe
00000090: 4687 d9bd 247b 8bbd 17dc 1d3e f321 2e3c
000000a0: e059 893e 0162 37be fc25 203e ac1a ae3a
000000b0: 79d7 ddbd 48e3 ac3e 0e61 f0bc 85e3 cfbd
000000c0: 39fd ebbc 2943 f6bd
0.17316101 -0.25296584 0.10298304 -0.21219689 0.107376754 -0.09731105 -0.08366751 -0.012040613
-0.035570182 -0.18916252 -0.052085437 0.11201453 0.32046083 -0.25351998 0.0065810266 -0.18299308
-0.00726845 -0.39766198 -0.0019653938 -0.3192938 0.23497671 0.042380154 -0.07856147 -0.10467091
0.31384352 -0.26494986 -0.08826858 -0.044517513 0.017644608 0.046507455 0.11277851 -0.043870706
-0.16145614 -0.030116482 -0.25901285 -0.27707317 -0.106215045 -0.068105966 0.15415989 0.010628211
0.26826382 -0.1790848 0.1563949 0.0013283095 -0.10832114 0.33767152 -0.029343154 -0.10150818
-0.02880727 -0.120245285

fc2.weight f4 [10, 50]
00000000: c03a a6be dbd3 fb3d 8811 093f 56af 013e
00000010: 0945 6bbe 72a8 193e 5575 8abe d271 60bc
00000020: 8888 6fbd c819 4abe 35db 82bd cb35 d23e
00000030: 234a 8fbe c148 87be 0068 883e 6c50 d1be
00000040: 3a3f 78bd 74c0 a8be feed b2bd 1b8d 503e
00000050: e918 e6bd 4ff3 3ebe 8d66 323e 722e f63d
00000060: d272 4b3d 5e98 1fbe 015b 183e 8bef 463e
00000070: 8ec2 203f e8b4 0ebf b21e 4dbe 8dbb 9dbe
00000080: 9c85 173f b3e7 bbbe a2d7 1a3f aaa8 b53d
00000090: 253e 18be bf85 b03e 86f3 bebe ae73 0cbe
000000a0: 48e6 37bf 8f70 28be ff4e de3e 01e7 233e
000000b0: 0612 fc3d 25d6 e73d 764d 843e 6365 79be
000000c0: 1bfe 843e 0079 b6bd ff80 283e 9c1a afbe
000000d0: 3e08 333e d415 5bbc c57d 353d b7c0 473e
000000e0: 23f6 b8be ec6c 7bbe 9798 aebd 262b c5bd
000000f0: 5d44 81be d160 42be 8ff8 c53c 5fa3 f5bd
00000100: 85f4 d3be ed7b 73be 772b 093d bfd6 42be
00000110: a7a5 9a3e 155b fdbd bd91 a53a 29ac 21be
00000120: 2757 14bf 3a8c d33d d423 d13c 402f 4dbe
00000130: 84aa 8bbe 640e 55be 2407 b0bc 7152 143e
00000140: c087 8bbc d996 07be 7d20 84be f790 133f
00000150: f7c5 b5be ec92 773c 9c50 3abd 6ac3 bbbe
00000160: 9563 343e 195b 1fbf 9460 293f 7f54 93be
00000170: 2754 17bf a62b 0d3e 235d b5be 50ad 3e3f
00000180: 8e89 b43e f73f 11be af90 8cbd 32b3 84be
00000190: 27ee 223f 8067 aebe 162e aabe d082 03bf
000001a0: 6f5b 9f3e b4c7 10bf 530e 4cbe 3362 143e
000001b0: 7269 32be 28d9 61be 59f3 423d 480d d53e
000001c0: 09c3 c73d a610 5dbe 1aa5 253e 05cb 98be
000001d0: ab4f acbe 8fbb 99be 8adc a1bd 45d7 41be
000001e0: 1648 b1bd 06fb d4be 1a96 0abf 28df da3e
000001f0: 3590 dd3c 3e96 8c3d 096d 0f3e 3016 23bf
00000200: 0cbf c13e fe54 80be c7df 55bd 8eb7 adbe
00000210: aed8 dd3e 5eac 423f 1fa1 913e c181 e03e
00000220: 4826 09be 2a68 afbd 6531 5bbe 74c0 563f
00000230: a611 59be 279b a83e 9f1f f8be 88f9 07be
00000240: 492d 9c3d 705a 03bf f9ab 3cbe aafd b0be
00000250: 677a fa3c 73fb edbe 0ab8 ca3e babd fe3d
00000260: 1346 ccbd d5fb 523e 156d b93e b358 eebd
00000270: 7d5a 643e f621 6c3d 4ce1 7f3e d29d 4fbe
00000280: 99c3 9e3e cc5a 203c 535c 9bbe b190 b7be
00000290: 59e9 8ebe f1e8 97bd 8f8e 003f 3118 933e
000002a0: 885e b8bc 5fe0 2fbe 56b1 133f 604b aa3e
000002b0: cac1 1c3d fba4 58be 5540 e93c 2274 03bf
000002c0: 5004 1a3e 6175 983e 62c9 bd3c 920e c4be
000002d0: 335a 05be ad7f 2f3d df1b 3cbe 1f86 09bd
000002e0: da24 f1bd 2765 803d 5978 bdbe cfb4 1fbd
000002f0: 8c44 cf3d 8cc8 da3d 3fc6 d0be 7168 16bc
00000300: 3d06 b1bd 0982 eebc 3215 9ebc 9afb c5be
00000310: 0e80 0abf 6a66 283f 9de8 42be 9c14 023e
00000320: b095 6ebe e1f4 c3be de5b 12bf 119e b0be
00000330: b950 e0be dadb 1d3e 1aca 963e 562c 45bd
00000340: f2ee 5bbe 078a c23e b280 63bd a642 53be
00000350: 24f0 743e 6a95 c83e e3f5 0fbe 09a4 d43e
00000360: f24d 03bf e661 dc3a 89e4 0c3f 04fb 09bd
00000370: 4800 abbe 22f9 53be 190a 293f cd1c e5be
00000380: e6ef e0be 45be 693f 5e14 2ebd ebee 0e3d
00000390: 40e1 39bf 1358 f93e 306e 0abe 19b2 edbd
000003a0: 6912 68be 27ef 3dbe c02d 9bbd 860a 0b3d
000003b0: 1351 143f 7473 1c3f 3c18 d93c ccbd c8bd
000003c0: 6d71 073c 4ae8 d13e 4a0a 923e b9f9 62bd
000003d0: e4bc d33c 2018 a3be 1568 8f3e e220 cbbd
000003e0: 3468 0c3f eea9 e1bd 187e 77be 29d5 463f
000003f0: b636 b43e 9c44 1e3f 07c0 0abe 32ea 58be
-0.32466698 0.122962676 0.53542376 0.12664542 -0.22975554 0.15005663 -0.27042642 -0.013699012
-0.058479816 -0.19736397 -0.06389467 0.41056666 -0.2798625 -0.26422694 0.26641846 -0.4088167
-0.060607173 -0.3295933 -0.087368 0.20366327 -0.1123522 -0.18647502 0.17421933 0.120205775
0.049670048 -0.15585467 0.14878465 0.19427316 0.62796867 -0.5574479 -0.2003124 -0.30807152
0.59188247 -0.3670021 0.6048528 0.08870061 -0.14867456 0.3447704 -0.3729517 -0.13716003
-0.71835756 -0.16449188 0.43419644 0.1600609 0.12308125 0.11320142 0.25840348 -0.24355082
0.25975117 -0.08909798 0.16455458 -0.3419999 0.17483613 -0.013371903 0.044309396 0.19507109
-0.36125287 -0.24553269 -0.08525198 -0.096273705 -0.2524747 -0.18982245 0.024166374 -0.11994051
-0.4139749 -0.23777743 0.033488717 -0.19027232 0.30204508 -0.12370888 0.0012631934 -0.1578833
-0.57945484 0.103294805 0.02552978 -0.20037556 -0.2727853 -0.20806271 -0.02148778 0.14484574
-0.017032504 -0.13241138 -0.25806037 0.57643074 -0.35502598 0.0151107125 -0.04548703 -0.36672527
0.17616113 -0.6224838 0.6616299 -0.28775403 -0.5911278 0.13786182 -0.3542262 0.74483204
0.35261196 -0.14184557 -0.06863534 -0.25917965 0.6364464 -0.3406334 -0.33238286 -0.5137148
0.31124446 -0.5655472 -0.1992734 0.14490585 -0.17423037 -0.22055495 0.047595356 0.41611695
0.09753997 -0.21588382 0.16176262 -0.29842392 -0.33654532 -0.30025908 -0.079033926 -0.18929775
-0.086563274 -0.41597766 -0.54135287 0.4274838 0.027046302 0.06864594 0.14006437 -0.6370573
0.3784107 -0.25064844 -0.052215364 -0.33929104 0.43329376 0.7604426 0.28443238 0.43848994
-0.1339351 -0.085647896 -0.21405561 0.8388741 -0.21198139 0.32930872 -0.48461625 -0.13278782
0.07625825 -0.5130987 -0.18424977 -0.3456853 0.030575944 -0.46480903 0.39593536 0.12438531
-0.09974303 0.20603879 0.36216035 -0.11638012 0.22300144 0.057649575 0.24988288 -0.20275047
0.31008604 0.009787273 -0.30343875 -0.35852578 -0.27912405 -0.07417477 0.5021753 0.28729394
-0.022506014 -0.17175435 0.5769247 0.33260632 0.03827075 -0.21156685 0.028473059 -0.5134908
0.15040708 0.29777053 0.023167316 -0.38292366 -0.1302269 0.04284637 -0.18370007 -0.033575173
-0.11774607 0.06269293 -0.3700588 -0.038990792 0.10120496 0.106827825 -0.4077625 -0.009180174
-0.08643768 -0.02911474 -0.019297216 -0.3866852 -0.54101646 0.6578127 -0.19034047 0.12703174
-0.23299289 -0.38272765 -0.5717143 -0.34495595 -0.43811586 0.15415898 0.29451066 -0.048137985
-0.21477869 0.37995932 -0.055542655 -0.20630893 0.23919731 0.39176494 -0.14058642 0.415314
-0.5129081 0.0016813844 0.55036217 -0.033686653 -0.33398652 -0.20700505 0.6603103 -0.44748536
-0.43933028 0.91305953 -0.042499892 0.03489582 -0.7260933 0.48700008 -0.13518596 -0.11606235
-0.22663273 -0.1854826 -0.075770855 0.033945583 0.5793621 0.6111367 0.026500814 -0.09801826
0.008266789 0.40997535 0.28523475 -0.055413935 0.025846906 -0.31854343 0.28009096 -0.09918381
0.548465 -0.1101874 -0.24169195 0.77669007 0.3519799 0.6182344 -0.13549815 -0.21183088

fc2.bias f4 [10]
00000000: 644d afbe 90db 3c3e e8a3 cbbe 3317 e13e
00000010: 3c5e 13bf 515e a53e b771 f4be c3da bbbd
00000020: a530 353f 09ce eb3e
-0.34238732 0.18443131 -0.39773488 0.43963012 -0.57565665 0.3229852 -0.47743008 -0.09172585
0.7077735 0.4605563
